…
", "parameters": [["weight", [19, 3]], ["bias", [19]]], "output_shape": [[26404, 19]], "num_parameters": [57, 19]}, {"name": "input_network.1", "id": 46914949476192, "class_name": "LayerNorm((19,), eps=1e-05, elementwise_affine=True)", "parameters": [["weight", [19]], ["bias", [19]]], "output_shape": [[26404, 19]], "num_parameters": [19, 19]}, {"name": "input_network.2", "id": 46912544722672, "class_name": "ReLU()", "parameters": [], "output_shape": [[26404, 19]], "num_parameters": []}, {"name": "edge_network", "id": 46914948509768, "class_name": "EdgeNetwork(\n  (network): Sequential(\n    (0): Linear(in_features=44, out_features=19, bias=True)\n    (1): LayerNorm((19,), eps=1e-05, elementwise_affine=True)\n    (2): ReLU()\n    (3): Linear(in_features=19, out_features=19, bias=True)\n    (4): LayerNorm((19,), eps=1e-05, elementwise_affine=True)\n    (5): ReLU()\n    (6): Linear(in_features=19, out_features=19, bias=True)\n    (7): LayerNorm((19,), eps=1e-05, elementwise_affine=True)\n    (8): ReLU()\n    (9): Linear(in_features=19, out_features=1, bias=True)\n  )\n)", "parameters": [["network.0.weight", [19, 44]], ["network.0.bias", [19]], ["network.1.weight", [19]], ["network.1.bias", [19]], ["network.3.weight", [19, 19]], ["network.3.bias", [19]], ["network.4.weight", [19]], ["network.4.bias", [19]], ["network.6.weight", [19, 19]], ["network.6.bias", [19]], ["network.7.weight", [19]], ["network.7.bias", [19]], ["network.9.weight", [1, 19]], ["network.9.bias", [1]]], "output_shape": [[93959]], "num_parameters": [836, 19, 19, 19, 361, 19, 19, 19, 361, 19, 19, 19, 19, 1]}, {"name": "node_network", "id": 46914948510608, "class_name": "NHopAttNetwork(\n  (network): Sequential(\n    (0): Linear(in_features=154, out_features=19, bias=True)\n    (1): LayerNorm((19,), eps=1e-05, elementwise_affine=True)\n    (2): ReLU()\n    (3): Linear(in_features=19, out_features=19, bias=True)\n    (4): LayerNorm((19,), eps=1e-05, elementwise_affine=True)\n    (5): ReLU()\n    (6): Linear(in_features=19, out_features=19, bias=True)\n    (7): LayerNorm((19,), eps=1e-05, elementwise_affine=True)\n    (8): ReLU()\n    (9): Linear(in_features=19, out_features=19, bias=True)\n    (10): LayerNorm((19,), eps=1e-05, elementwise_affine=True)\n    (11): ReLU()\n  )\n)", "parameters": [["network.0.weight", [19, 154]], ["network.0.bias", [19]], ["network.1.weight", [19]], ["network.1.bias", [19]], ["network.3.weight", [19, 19]], ["network.3.bias", [19]], ["network.4.weight", [19]], ["network.4.bias", [19]], ["network.6.weight", [19, 19]], ["network.6.bias", [19]], ["network.7.weight", [19]], ["n
…
