{"graph_0": {"_type": "graph", "format": "torch", "nodes": [{"name": "input_network.0", "id": 46914949118440, "class_name": "Linear(in_features=3, out_features=81, bias=True)", "parameters": [["weight", [81, 3]], ["bias", [81]]], "output_shape": [[30018, 81]], "num_parameters": [243, 81]}, {"name": "input_network.1", "id": 46914949118496, "class_name": "ReLU()", "parameters": [], "output_shape": [[30018, 81]], "num_parameters": []}, {"name": "edge_network", "id": 46914949118608, "class_name": "EdgeNetwork(\n  (network): Sequential(\n    (0): Linear(in_features=168, out_features=81, bias=True)\n    (1): ReLU()\n    (2): Linear(in_features=81, out_features=81, bias=True)\n    (3): ReLU()\n    (4): Linear(in_features=81, out_features=81, bias=True)\n    (5): ReLU()\n    (6): Linear(in_features=81, out_features=1, bias=True)\n  )\n)", "parameters": [["network.0.weight", [81, 168]], ["network.0.bias", [81]], ["network.2.weight", [81, 81]], ["network.2.bias", [81]], ["network.4.weight", [81, 81]], ["network.4.bias", [81]], ["network.6.weight", [1, 81]], ["network.6.bias", [1]]], "output_shape": [[118685]], "num_parameters": [13608, 81, 6561, 81, 6561, 81, 81, 1]}, {"name": "node_network", "id": 46914949119224, "class_name": "NHopAttNetwork(\n  (network): Sequential(\n    (0): Linear(in_features=588, out_features=81, bias=True)\n    (1): LayerNorm((81,), eps=1e-05, elementwise_affine=True)\n    (2): ReLU()\n    (3): Linear(in_features=81, out_features=81, bias=True)\n    (4): LayerNorm((81,), eps=1e-05, elementwise_affine=True)\n    (5): ReLU()\n    (6): Linear(in_features=81, out_features=81, bias=True)\n    (7): LayerNorm((81,), eps=1e-05, elementwise_affine=True)\n    (8): ReLU()\n    (9): Linear(in_features=81, out_features=81, bias=True)\n    (10): LayerNorm((81,), eps=1e-05, elementwise_affine=True)\n    (11): ReLU()\n  )\n)", "parameters": [["network.0.weight", [81, 588]], ["network.0.bias", [81]], ["network.1.weight", [81]], ["network.1.bias", [81]], ["network.3.weight", [81, 81]], ["network.3.bias", [81]], ["network.4.weight", [81]], ["network.4.bias", [81]], ["network.6.weight", [81, 81]], ["network.6.bias", [81]], ["network.7.weight", [81]], ["network.7.bias", [81]], ["network.9.weight", [81, 81]], ["network.9.bias", [81]], ["network.10.weight", [81]], ["network.10.bias", [81]]], "output_shape": [[30018, 81]], "num_parameters": [47628, 81, 81, 81, 6561, 81, 81, 81, 6561, 81, 81, 81, 6561, 81, 81, 81]}], "edges": []}}
