…
", "parameters": [["weight", [31, 3]], ["bias", [31]]], "output_shape": [[30933, 31]], "num_parameters": [93, 31]}, {"name": "input_network.1", "id": 46914949059976, "class_name": "LayerNorm((31,), eps=1e-05, elementwise_affine=True)", "parameters": [["weight", [31]], ["bias", [31]]], "output_shape": [[30933, 31]], "num_parameters": [31, 31]}, {"name": "input_network.2", "id": 46912544726880, "class_name": "Tanh()", "parameters": [], "output_shape": [[30933, 31]], "num_parameters": []}, {"name": "edge_network", "id": 46914949060144, "class_name": "EdgeNetwork(\n  (network): Sequential(\n    (0): Linear(in_features=68, out_features=31, bias=True)\n    (1): LayerNorm((31,), eps=1e-05, elementwise_affine=True)\n    (2): Tanh()\n    (3): Linear(in_features=31, out_features=31, bias=True)\n    (4): LayerNorm((31,), eps=1e-05, elementwise_affine=True)\n    (5): Tanh()\n    (6): Linear(in_features=31, out_features=31, bias=True)\n    (7): LayerNorm((31,), eps=1e-05, elementwise_affine=True)\n    (8): Tanh()\n    (9): Linear(in_features=31, out_features=1, bias=True)\n  )\n)", "parameters": [["network.0.weight", [31, 68]], ["network.0.bias", [31]], ["network.1.weight", [31]], ["network.1.bias", [31]], ["network.3.weight", [31, 31]], ["network.3.bias", [31]], ["network.4.weight", [31]], ["network.4.bias", [31]], ["network.6.weight", [31, 31]], ["network.6.bias", [31]], ["network.7.weight", [31]], ["network.7.bias", [31]], ["network.9.weight", [1, 31]], ["network.9.bias", [1]]], "output_shape": [[124795]], "num_parameters": [2108, 31, 31, 31, 961, 31, 31, 31, 961, 31, 31, 31, 31, 1]}, {"name": "node_network", "id": 46914949060984, "class_name": "NHopAttNetwork(\n  (network): Sequential(\n    (0): Linear(in_features=578, out_features=31, bias=True)\n    (1): ReLU()\n    (2): Linear(in_features=31, out_features=31, bias=True)\n    (3): ReLU()\n    (4): Linear(in_features=31, out_features=31, bias=True)\n    (5): ReLU()\n    (6): Linear(in_features=31, out_features=31, bias=True)\n    (7): ReLU()\n  )\n)", "parameters": [["network.0.weight", [31, 578]], ["network.0.bias", [31]], ["network.2.weight", [31, 31]], ["network.2.bias", [31]], ["network.4.weight", [31, 31]], ["network.4.bias", [31]], ["network.6.weight", [31, 31]], ["network.6.bias", [31]]], "output_shape": [[30933, 31]], "num_parameters": [17918, 31, 961, 31, 961, 31, 9
…
