…
", "parameters": [["weight", [24, 3]], ["bias", [24]]], "output_shape": [[15372, 24]], "num_parameters": [72, 24]}, {"name": "input_network.1", "id": 46914949146664, "class_name": "LayerNorm((24,), eps=1e-05, elementwise_affine=True)", "parameters": [["weight", [24]], ["bias", [24]]], "output_shape": [[15372, 24]], "num_parameters": [24, 24]}, {"name": "input_network.2", "id": 46912544726936, "class_name": "Tanh()", "parameters": [], "output_shape": [[15372, 24]], "num_parameters": []}, {"name": "edge_network", "id": 46914949146832, "class_name": "EdgeNetwork(\n  (network): Sequential(\n    (0): Linear(in_features=54, out_features=24, bias=True)\n    (1): LayerNorm((24,), eps=1e-05, elementwise_affine=True)\n    (2): Tanh()\n    (3): Linear(in_features=24, out_features=24, bias=True)\n    (4): LayerNorm((24,), eps=1e-05, elementwise_affine=True)\n    (5): Tanh()\n    (6): Linear(in_features=24, out_features=24, bias=True)\n    (7): LayerNorm((24,), eps=1e-05, elementwise_affine=True)\n    (8): Tanh()\n    (9): Linear(in_features=24, out_features=1, bias=True)\n  )\n)", "parameters": [["network.0.weight", [24, 54]], ["network.0.bias", [24]], ["network.1.weight", [24]], ["network.1.bias", [24]], ["network.3.weight", [24, 24]], ["network.3.bias", [24]], ["network.4.weight", [24]], ["network.4.bias", [24]], ["network.6.weight", [24, 24]], ["network.6.bias", [24]], ["network.7.weight", [24]], ["network.7.bias", [24]], ["network.9.weight", [1, 24]], ["network.9.bias", [1]]], "output_shape": [[60881]], "num_parameters": [1296, 24, 24, 24, 576, 24, 24, 24, 576, 24, 24, 24, 24, 1]}, {"name": "node_network", "id": 46914949147672, "class_name": "NHopAttNetwork(\n  (network): Sequential(\n    (0): Linear(in_features=135, out_features=24, bias=True)\n    (1): ReLU()\n    (2): Linear(in_features=24, out_features=24, bias=True)\n    (3): ReLU()\n    (4): Linear(in_features=24, out_features=24, bias=True)\n    (5): ReLU()\n    (6): Linear(in_features=24, out_features=24, bias=True)\n    (7): ReLU()\n  )\n)", "parameters": [["network.0.weight", [24, 135]], ["network.0.bias", [24]], ["network.2.weight", [24, 24]], ["network.2.bias", [24]], ["network.4.weight", [24, 24]], ["network.4.bias", [24]], ["network.6.weight", [24, 24]], ["network.6.bias", [24]]], "output_shape": [[15372, 24]], "num_parameters": [3240, 24, 576, 24, 576, 24, 57
…
