…
", "parameters": [["weight", [14, 3]], ["bias", [14]]], "output_shape": [[29215, 14]], "num_parameters": [42, 14]}, {"name": "input_network.1", "id": 46914948653464, "class_name": "LayerNorm((14,), eps=1e-05, elementwise_affine=True)", "parameters": [["weight", [14]], ["bias", [14]]], "output_shape": [[29215, 14]], "num_parameters": [14, 14]}, {"name": "input_network.2", "id": 46912544726880, "class_name": "Tanh()", "parameters": [], "output_shape": [[29215, 14]], "num_parameters": []}, {"name": "edge_network", "id": 46914948653632, "class_name": "EdgeNetwork(\n  (network): Sequential(\n    (0): Linear(in_features=34, out_features=14, bias=True)\n    (1): LayerNorm((14,), eps=1e-05, elementwise_affine=True)\n    (2): Tanh()\n    (3): Linear(in_features=14, out_features=14, bias=True)\n    (4): LayerNorm((14,), eps=1e-05, elementwise_affine=True)\n    (5): Tanh()\n    (6): Linear(in_features=14, out_features=14, bias=True)\n    (7): LayerNorm((14,), eps=1e-05, elementwise_affine=True)\n    (8): Tanh()\n    (9): Linear(in_features=14, out_features=1, bias=True)\n  )\n)", "parameters": [["network.0.weight", [14, 34]], ["network.0.bias", [14]], ["network.1.weight", [14]], ["network.1.bias", [14]], ["network.3.weight", [14, 14]], ["network.3.bias", [14]], ["network.4.weight", [14]], ["network.4.bias", [14]], ["network.6.weight", [14, 14]], ["network.6.bias", [14]], ["network.7.weight", [14]], ["network.7.bias", [14]], ["network.9.weight", [1, 14]], ["network.9.bias", [1]]], "output_shape": [[114397]], "num_parameters": [476, 14, 14, 14, 196, 14, 14, 14, 196, 14, 14, 14, 14, 1]}, {"name": "node_network", "id": 46914948654472, "class_name": "NHopAttNetwork(\n  (network): Sequential(\n    (0): Linear(in_features=255, out_features=14, bias=True)\n    (1): ReLU()\n    (2): Linear(in_features=14, out_features=14, bias=True)\n    (3): ReLU()\n    (4): Linear(in_features=14, out_features=14, bias=True)\n    (5): ReLU()\n    (6): Linear(in_features=14, out_features=14, bias=True)\n    (7): ReLU()\n  )\n)", "parameters": [["network.0.weight", [14, 255]], ["network.0.bias", [14]], ["network.2.weight", [14, 14]], ["network.2.bias", [14]], ["network.4.weight", [14, 14]], ["network.4.bias", [14]], ["network.6.weight", [14, 14]], ["network.6.bias", [14]]], "output_shape": [[29215, 14]], "num_parameters": [3570, 14, 196, 14, 196, 14, 19
…
