{"graph_0": {"_type": "graph", "format": "torch", "nodes": [{"name": "input_network.0", "id": 46914949254224, "class_name": "Linear(in_features=3, out_features=25, bias=True)", "parameters": [["weight", [25, 3]], ["bias", [25]]], "output_shape": [[28548, 25]], "num_parameters": [75, 25]}, {"name": "input_network.1", "id": 46914949254280, "class_name": "ReLU()", "parameters": [], "output_shape": [[28548, 25]], "num_parameters": []}, {"name": "edge_network", "id": 46914949254392, "class_name": "EdgeNetwork(\n  (network): Sequential(\n    (0): Linear(in_features=56, out_features=25, bias=True)\n    (1): ReLU()\n    (2): Linear(in_features=25, out_features=25, bias=True)\n    (3): ReLU()\n    (4): Linear(in_features=25, out_features=25, bias=True)\n    (5): ReLU()\n    (6): Linear(in_features=25, out_features=1, bias=True)\n  )\n)", "parameters": [["network.0.weight", [25, 56]], ["network.0.bias", [25]], ["network.2.weight", [25, 25]], ["network.2.bias", [25]], ["network.4.weight", [25, 25]], ["network.4.bias", [25]], ["network.6.weight", [1, 25]], ["network.6.bias", [1]]], "output_shape": [[108192]], "num_parameters": [1400, 25, 625, 25, 625, 25, 25, 1]}, {"name": "node_network", "id": 46914949255008, "class_name": "NHopAttNetwork(\n  (network): Sequential(\n    (0): Linear(in_features=252, out_features=25, bias=True)\n    (1): LayerNorm((25,), eps=1e-05, elementwise_affine=True)\n    (2): ReLU()\n    (3): Linear(in_features=25, out_features=25, bias=True)\n    (4): LayerNorm((25,), eps=1e-05, elementwise_affine=True)\n    (5): ReLU()\n    (6): Linear(in_features=25, out_features=25, bias=True)\n    (7): LayerNorm((25,), eps=1e-05, elementwise_affine=True)\n    (8): ReLU()\n    (9): Linear(in_features=25, out_features=25, bias=True)\n    (10): LayerNorm((25,), eps=1e-05, elementwise_affine=True)\n    (11): ReLU()\n  )\n)", "parameters": [["network.0.weight", [25, 252]], ["network.0.bias", [25]], ["network.1.weight", [25]], ["network.1.bias", [25]], ["network.3.weight", [25, 25]], ["network.3.bias", [25]], ["network.4.weight", [25]], ["network.4.bias", [25]], ["network.6.weight", [25, 25]], ["network.6.bias", [25]], ["network.7.weight", [25]], ["n
…
