…
{'start_epoch': 50, 'end_epoch': 64, 'factor': 0.01}]}, 'training': {'n_epochs': 64}, 'n_ranks': 1}
2019-11-06 16:39:47,765 INFO Saving job outputs to /global/cscratch1/sd/danieltm/ExaTrkX/doublet_results/counter001
2019-11-06 16:39:47,766 INFO Writing config via pickle to /global/cscratch1/sd/danieltm/ExaTrkX/doublet_results/counter001/config.pkl
2019-11-06 16:39:55,767 INFO Loaded 160 training samples
2019-11-06 16:39:55,768 INFO Loaded 40 validation samples
2019-11-06 16:39:55,768 INFO Choosing GPU 0
2019-11-06 16:39:59,363 INFO Model: 
GNNTrackCounter(
  (input_network): Sequential(
    (0): Linear(in_features=3, out_features=64, bias=True)
    (1): LayerNorm((64,), eps=1e-05, elementwise_affine=True)
    (2): Tanh()
  )
  (edge_network): EdgeNetwork(
    (network): Sequential(
      (0): Linear(in_features=134, out_features=64, bias=True)
      (1): LayerNorm((64,), eps=1e-05, elementwise_affine=True)
      (2): Tanh()
      (3): Linear(in_features=64, out_features=64, bias=True)
      (4): LayerNorm((64,), eps=1e-05, elementwise_affine=True)
      (5): Tanh()
      (6): Linear(in_features=64, out_features=64, bias=True)
      (7): LayerNorm((64,), eps=1e-05, elementwise_affine=True)
      (8): Tanh()
      (9): Linear(in_features=64, out_features=1, bias=True)
    )
  )
  (node_network): NodeNetwork(
    (network): Sequential(
      (0): Linear(in_features=201, out_features=64, bias=True)
      (1): LayerNorm((64,), eps=1e-05, elementwise_affine=True)
      (2): Tanh()
      (3): Linear(in_features=64, out_features=64, bias=True)
      (4): LayerNorm((64,), eps=1e-05, elementwise_affine=True)
      (5): Tanh()
      (6): Linear(in_features=64, out_features=64, bias=True)
      (7): LayerNorm((64,), eps=1e-05, elementwise_affine=True)
      (8): Tanh()
      (9): Linear(in_features=64, out_features=64, bias=True)
      (10): LayerNorm((64,), eps=1e-05, elementwise_affine=True)
      (11): Tanh()
    )
  )
  (output_network): OutputNetwork(
    (network): Sequential(
      (0): Linear(in_features=67, out_features=64, bias=True)
      (1): LayerNorm((64,), eps=1e-05, elementwise_affine=True)
      (2): Tanh()
      (3): Linear(in_features=64, out_features=64, bias=True)
      (4): LayerNorm((64,), eps=1e-05, elementwise_affine=True)
      (5): Tanh()
      (6): Linear(in_features=64, out_features=64, bias=True)
      (7): LayerNorm((64,), eps=1e-05, elementwise_affine=True)
      (8): Tanh()
      (9): Linear(in_features=64, out_features=41, bias=True)
    )
  )
)
Parameters: 59434
2019-11-06 16:39:59,364 INFO Epoch 0
2019-11-06 16:40:03,254 INFO   Training loss: 0.388
2019-11-06 16:40:03,727 INFO   Validation loss: 0.338 acc: 0.837
2019-11-06 16:40:03,751 INFO Epoch 1
2019-11-06 16:40:07,008 INFO   Training loss: 0.318
2019-11-06 16:40:07,442 INFO   Validation loss: 0.243 acc: 0.909
2019-11-06 16:40:07,466 INFO Epoch 2
…
