…
 bias=True)", "parameters": [["weight", [6, 3]], ["bias", [6]]], "output_shape": [[29698, 6]], "num_parameters": [18, 6]}, {"name": "input_network.1", "id": 46914949147224, "class_name": "LayerNorm((6,), eps=1e-05, elementwise_affine=True)", "parameters": [["weight", [6]], ["bias", [6]]], "output_shape": [[29698, 6]], "num_parameters": [6, 6]}, {"name": "input_network.2", "id": 46912544726880, "class_name": "Tanh()", "parameters": [], "output_shape": [[29698, 6]], "num_parameters": []}, {"name": "edge_network", "id": 46914949147392, "class_name": "EdgeNetwork(\n  (network): Sequential(\n    (0): Linear(in_features=18, out_features=6, bias=True)\n    (1): LayerNorm((6,), eps=1e-05, elementwise_affine=True)\n    (2): Tanh()\n    (3): Linear(in_features=6, out_features=6, bias=True)\n    (4): LayerNorm((6,), eps=1e-05, elementwise_affine=True)\n    (5): Tanh()\n    (6): Linear(in_features=6, out_features=6, bias=True)\n    (7): LayerNorm((6,), eps=1e-05, elementwise_affine=True)\n    (8): Tanh()\n    (9): Linear(in_features=6, out_features=1, bias=True)\n  )\n)", "parameters": [["network.0.weight", [6, 18]], ["network.0.bias", [6]], ["network.1.weight", [6]], ["network.1.bias", [6]], ["network.3.weight", [6, 6]], ["network.3.bias", [6]], ["network.4.weight", [6]], ["network.4.bias", [6]], ["network.6.weight", [6, 6]], ["network.6.bias", [6]], ["network.7.weight", [6]], ["network.7.bias", [6]], ["network.9.weight", [1, 6]], ["network.9.bias", [1]]], "output_shape": [[116880]], "num_parameters": [108, 6, 6, 6, 36, 6, 6, 6, 36, 6, 6, 6, 6, 1]}, {"name": "node_network", "id": 46914949148232, "class_name": "NHopAttNetwork(\n  (network): Sequential(\n    (0): Linear(in_features=81, out_features=6, bias=True)\n    (1): ReLU()\n    (2): Linear(in_features=6, out_features=6, bias=True)\n    (3): ReLU()\n    (4): Linear(in_features=6, out_features=6, bias=True)\n    (5): ReLU()\n    (6): Linear(in_features=6, out_features=6, bias=True)\n    (7): ReLU()\n  )\n)", "parameters": [["network.0.weight", [6, 81]], ["network.0.bias", [6]], ["network.2.weight", [6, 6]], ["network.2.bias", [6]], ["network.4.weight", [6, 6]], ["network.4.bias", [6]], ["network.6.weight", [6, 6]], ["network.6.bias", [6]]], "output_shape": [[29698, 6]], "num_parameters": [486, 6, 36, 6, 36, 6, 36, 6]}], "edges": []}}
