{"graph_0": {"_type": "graph", "format": "torch", "nodes": [{"name": "input_network.0", "id": 46914949436360, "class_name": "Linear(in_features=3, out_features=10, bias=True)", "parameters": [["weight", [10, 3]], ["bias", [10]]], "output_shape": [[12420, 10]], "num_parameters": [30, 10]}, {"name": "input_network.1", "id": 46914949436416, "class_name": "ReLU()", "parameters": [], "output_shape": [[12420, 10]], "num_parameters": []}, {"name": "edge_network", "id": 46914949436528, "class_name": "EdgeNetwork(\n  (network): Sequential(\n    (0): Linear(in_features=26, out_features=10, bias=True)\n    (1): ReLU()\n    (2): Linear(in_features=10, out_features=10, bias=True)\n    (3): ReLU()\n    (4): Linear(in_features=10, out_features=10, bias=True)\n    (5): ReLU()\n    (6): Linear(in_features=10, out_features=1, bias=True)\n  )\n)", "parameters": [["network.0.weight", [10, 26]], ["network.0.bias", [10]], ["network.2.weight", [10, 10]], ["network.2.bias", [10]], ["network.4.weight", [10, 10]], ["network.4.bias", [10]], ["network.6.weight", [1, 10]], ["network.6.bias", [1]]], "output_shape": [[42789]], "num_parameters": [260, 10, 100, 10, 100, 10, 10, 1]}, {"name": "node_network", "id": 46914949437144, "class_name": "NHopAttNetwork(\n  (network): Sequential(\n    (0): Linear(in_features=91, out_features=10, bias=True)\n    (1): LayerNorm((10,), eps=1e-05, elementwise_affine=True)\n    (2): ReLU()\n    (3): Linear(in_features=10, out_features=10, bias=True)\n    (4): LayerNorm((10,), eps=1e-05, elementwise_affine=True)\n    (5): ReLU()\n    (6): Linear(in_features=10, out_features=10, bias=True)\n    (7): LayerNorm((10,), eps=1e-05, elementwise_affine=True)\n    (8): ReLU()\n    (9): Linear(in_features=10, out_features=10, bias=True)\n    (10): LayerNorm((10,), eps=1e-05, elementwise_affine=True)\n    (11): ReLU()\n  )\n)", "parameters": [["network.0.weight", [10, 91]], ["network.0.bias", [10]], ["network.1.weight", [10]], ["network.1.bias", [10]], ["network.3.weight", [10, 10]], ["network.3.bias", [10]], ["network.4.weight", [10]], ["network.4.bias", [10]], ["network.6.weight", [10, 10]], ["network.6.bias", [10]], ["network.7.weight", [10]], ["ne
…
