…
, "parameters": [["weight", [77, 3]], ["bias", [77]]], "output_shape": [[26415, 77]], "num_parameters": [231, 77]}, {"name": "input_network.1", "id": 46914949145208, "class_name": "LayerNorm((77,), eps=1e-05, elementwise_affine=True)", "parameters": [["weight", [77]], ["bias", [77]]], "output_shape": [[26415, 77]], "num_parameters": [77, 77]}, {"name": "input_network.2", "id": 46912544722840, "class_name": "Tanh()", "parameters": [], "output_shape": [[26415, 77]], "num_parameters": []}, {"name": "edge_network", "id": 46914949145376, "class_name": "EdgeNetwork(\n  (network): Sequential(\n    (0): Linear(in_features=160, out_features=77, bias=True)\n    (1): LayerNorm((77,), eps=1e-05, elementwise_affine=True)\n    (2): Tanh()\n    (3): Linear(in_features=77, out_features=77, bias=True)\n    (4): LayerNorm((77,), eps=1e-05, elementwise_affine=True)\n    (5): Tanh()\n    (6): Linear(in_features=77, out_features=77, bias=True)\n    (7): LayerNorm((77,), eps=1e-05, elementwise_affine=True)\n    (8): Tanh()\n    (9): Linear(in_features=77, out_features=1, bias=True)\n  )\n)", "parameters": [["network.0.weight", [77, 160]], ["network.0.bias", [77]], ["network.1.weight", [77]], ["network.1.bias", [77]], ["network.3.weight", [77, 77]], ["network.3.bias", [77]], ["network.4.weight", [77]], ["network.4.bias", [77]], ["network.6.weight", [77, 77]], ["network.6.bias", [77]], ["network.7.weight", [77]], ["network.7.bias", [77]], ["network.9.weight", [1, 77]], ["network.9.bias", [1]]], "output_shape": [[95093]], "num_parameters": [12320, 77, 77, 77, 5929, 77, 77, 77, 5929, 77, 77, 77, 77, 1]}, {"name": "node_network", "id": 46914949146216, "class_name": "NHopAttNetwork(\n  (network): Sequential(\n    (0): Linear(in_features=1040, out_features=77, bias=True)\n    (1): ReLU()\n    (2): Linear(in_features=77, out_features=77, bias=True)\n    (3): ReLU()\n    (4): Linear(in_features=77, out_features=77, bias=True)\n    (5): ReLU()\n    (6): Linear(in_features=77, out_features=77, bias=True)\n    (7): ReLU()\n  )\n)", "parameters": [["network.0.weight", [77, 1040]], ["network.0.bias", [77]], ["network.2.weight", [77, 77]], ["network.2.bias", [77]], ["network.4.weight", [77, 77]], ["network.4.bias", [77]], ["network.6.weight", [77, 77]], ["network.6.bias", [77]]], "output_shape": [[26415, 77]], "num_parameters": [80080, 77, 5929, 77, 5929, 77, 5929, 77]}], "edges": []}}
