…
, "parameters": [["weight", [58, 3]], ["bias", [58]]], "output_shape": [[26155, 58]], "num_parameters": [174, 58]}, {"name": "input_network.1", "id": 46914949560528, "class_name": "LayerNorm((58,), eps=1e-05, elementwise_affine=True)", "parameters": [["weight", [58]], ["bias", [58]]], "output_shape": [[26155, 58]], "num_parameters": [58, 58]}, {"name": "input_network.2", "id": 46912544722672, "class_name": "Tanh()", "parameters": [], "output_shape": [[26155, 58]], "num_parameters": []}, {"name": "edge_network", "id": 46914949560696, "class_name": "EdgeNetwork(\n  (network): Sequential(\n    (0): Linear(in_features=122, out_features=58, bias=True)\n    (1): LayerNorm((58,), eps=1e-05, elementwise_affine=True)\n    (2): Tanh()\n    (3): Linear(in_features=58, out_features=58, bias=True)\n    (4): LayerNorm((58,), eps=1e-05, elementwise_affine=True)\n    (5): Tanh()\n    (6): Linear(in_features=58, out_features=58, bias=True)\n    (7): LayerNorm((58,), eps=1e-05, elementwise_affine=True)\n    (8): Tanh()\n    (9): Linear(in_features=58, out_features=1, bias=True)\n  )\n)", "parameters": [["network.0.weight", [58, 122]], ["network.0.bias", [58]], ["network.1.weight", [58]], ["network.1.bias", [58]], ["network.3.weight", [58, 58]], ["network.3.bias", [58]], ["network.4.weight", [58]], ["network.4.bias", [58]], ["network.6.weight", [58, 58]], ["network.6.bias", [58]], ["network.7.weight", [58]], ["network.7.bias", [58]], ["network.9.weight", [1, 58]], ["network.9.bias", [1]]], "output_shape": [[94383]], "num_parameters": [7076, 58, 58, 58, 3364, 58, 58, 58, 3364, 58, 58, 58, 58, 1]}, {"name": "node_network", "id": 46914949561536, "class_name": "NHopAttNetwork(\n  (network): Sequential(\n    (0): Linear(in_features=671, out_features=58, bias=True)\n    (1): ReLU()\n    (2): Linear(in_features=58, out_features=58, bias=True)\n    (3): ReLU()\n    (4): Linear(in_features=58, out_features=58, bias=True)\n    (5): ReLU()\n    (6): Linear(in_features=58, out_features=58, bias=True)\n    (7): ReLU()\n  )\n)", "parameters": [["network.0.weight", [58, 671]], ["network.0.bias", [58]], ["network.2.weight", [58, 58]], ["network.2.bias", [58]], ["network.4.weight", [58, 58]], ["network.4.bias", [58]], ["network.6.weight", [58, 58]], ["network.6.bias", [58]]], "output_shape": [[26155, 58]], "num_parameters": [38918, 58, 3364, 58, 3364, 58, 3364, 58]}], "edges": []}}
