…
", "parameters": [["weight", [12, 3]], ["bias", [12]]], "output_shape": [[59771, 12]], "num_parameters": [36, 12]}, {"name": "input_network.1", "id": 46914487797072, "class_name": "LayerNorm((12,), eps=1e-05, elementwise_affine=True)", "parameters": [["weight", [12]], ["bias", [12]]], "output_shape": [[59771, 12]], "num_parameters": [12, 12]}, {"name": "input_network.2", "id": 46912544718688, "class_name": "Tanh()", "parameters": [], "output_shape": [[59771, 12]], "num_parameters": []}, {"name": "edge_network", "id": 46914487797240, "class_name": "EdgeNetwork(\n  (network): Sequential(\n    (0): Linear(in_features=30, out_features=12, bias=True)\n    (1): LayerNorm((12,), eps=1e-05, elementwise_affine=True)\n    (2): Tanh()\n    (3): Linear(in_features=12, out_features=12, bias=True)\n    (4): LayerNorm((12,), eps=1e-05, elementwise_affine=True)\n    (5): Tanh()\n    (6): Linear(in_features=12, out_features=12, bias=True)\n    (7): LayerNorm((12,), eps=1e-05, elementwise_affine=True)\n    (8): Tanh()\n    (9): Linear(in_features=12, out_features=1, bias=True)\n  )\n)", "parameters": [["network.0.weight", [12, 30]], ["network.0.bias", [12]], ["network.1.weight", [12]], ["network.1.bias", [12]], ["network.3.weight", [12, 12]], ["network.3.bias", [12]], ["network.4.weight", [12]], ["network.4.bias", [12]], ["network.6.weight", [12, 12]], ["network.6.bias", [12]], ["network.7.weight", [12]], ["network.7.bias", [12]], ["network.9.weight", [1, 12]], ["network.9.bias", [1]]], "output_shape": [[236700]], "num_parameters": [360, 12, 12, 12, 144, 12, 12, 12, 144, 12, 12, 12, 12, 1]}, {"name": "node_network", "id": 46914487798080, "class_name": "NHopAttNetwork(\n  (network): Sequential(\n    (0): Linear(in_features=195, out_features=12, bias=True)\n    (1): ReLU()\n    (2): Linear(in_features=12, out_features=12, bias=True)\n    (3): ReLU()\n    (4): Linear(in_features=12, out_features=12, bias=True)\n    (5): ReLU()\n    (6): Linear(in_features=12, out_features=12, bias=True)\n    (7): ReLU()\n  )\n)", "parameters": [["network.0.weight", [12, 195]], ["network.0.bias", [12]], ["network.2.weight", [12, 12]], ["network.2.bias", [12]], ["network.4.weight", [12, 12]], ["network.4.bias", [12]], ["network.6.weight", [12, 12]], ["network.6.bias", [12]]], "output_shape": [[59771, 12]], "num_parameters": [2340, 12, 144, 12, 144, 12, 144, 12]}], "edges": []}}
